…
cations.</s><s xml:id="_nTH8qpY">"L-GM" refers to the L-GM loss used in training.</s><s xml:id="_TPrX9hP">From the patch-level results of the classifier, the performance of the auxiliary classifier under 40× of DMC is similar to the single-input classifier under 40×, and that of the auxiliary classifier under 20× is better than the corresponding single-input classifier.</s><s xml:id="_gEeHtz6">When</s></p><p xml:id="_AZgxaEa"><s xml:id="_Fm8ZyWt">Table 1.</s><s xml:id="_f2TkYdv">The slide filter (CNN model) in postprocessing.</s><s xml:id="_jytEgaM">Layer (type) Output Shape Param Conv2d+ReLU [32, 64, 64] 320 Conv2d+ReLU+MaxPool2d [32, 32, 32] 9,248 Conv2d+ReLU+MaxPool2d [48, 16, 16] 13,872 Conv2d+ReLU+MaxPool2d [64, 8, 8] 27,712 AvgPool2d [64, 1, 1] 0 Linear [2] 130 Total params 51,282 <ref type="url" target="https://doi.org/10.1371/journal.pone.0251521.t001">https://doi.org/10.1371/journal.pone.0251521.t001</ref></s><s xml:id="_H9Czuq2">Fig 6.</s><s xml:id="_5UDFyGX">Examples of WSI in the two datasets.</s><s xml:id="_Sm5g4vr"><ref type="url" target="https://doi.org/10.1371/journal.pone.0251521.g006">https://doi.org/10.1371/journal.pone.02515
…
