…
refers to the auxiliary classifier only for 40\u00d7, \"DMC 40\u00d7+20\u00d7\" refers to the main classifier using fusion features under two magnifications. \"L-GM\" refers to the L-GM loss used in training. From the patch-level results of the classifier, the performance of the auxiliary classifier under 40\u00d7 of DMC is similar to the single-input classifier under 40\u00d7, and that of the auxiliary classifier under 20\u00d7 is better than the corresponding single-input classifier. When\n\nTable 1. The slide filter (CNN model) in postprocessing. Layer (type) Output Shape Param Conv2d+ReLU [32, 64, 64] 320 Conv2d+ReLU+MaxPool2d [32, 32, 32] 9,248 Conv2d+ReLU+MaxPool2d [48, 16, 16] 13,872 Conv2d+ReLU+MaxPool2d [64, 8, 8] 27,712 AvgPool2d [64, 1, 1] 0 Linear [2] 130 Total params 51,282  https://doi.org/10.1371/journal.pone.0251521.t001 Fig 6. Examples of WSI in the two datasets. https://doi.org/10.1371/journal.pone.0251521.g006\n\nthe fused features under both magnifications are used at the same time, the performance was improved by nearly 2~3%. Because a pair of patches overlap at the center point and the field of view is different, so the sp
…
